…
    Average Memory :                             2639.75 MB
    Total Requested Memory :                     5000.00 MB
    Delta Memory :                               1570.00 MB
    Max Swap :                                   -
    Max Processes :                              3
    Max Threads :                                8
    Run time :                                   74 sec.
    Turnaround time :                            67 sec.

The output (if any) follows:

Files already downloaded and verified
Files already downloaded and verified
cuda:0
---network architecture---
Sequential(
  (0): Conv2d(3, 64, kernel_size=(3, 3), stride=(1, 1), padding=(1, 1))
  (1): Conv2d(64, 64, kernel_size=(3, 3), stride=(1, 1), padding=(1, 1))
  (2): Conv2d(64, 128, kernel_size=(3, 3), stride=(2, 2), padding=(1, 1))
  (3): Conv2d(128, 128, kernel_size=(3, 3), stride=(1, 1), padding=(1, 1))
  (4): Conv2d(128, 128, kernel_size=(3, 3), stride=(1, 1), padding=(1, 1))
  (5): Conv2d(128, 256, kernel_size=(3, 3), stride=(2, 2), padding=(1, 1))
  (6): Conv2d(256, 256, kernel_size=(3, 3), stride=(1, 1), padding=(1, 1))
  (7): Conv2d(256, 256, kernel_size=(3, 3), stride=(1, 1), padding=(1, 1))
  (8): Conv2d(256, 512, kernel_size=(3, 3), stride=(2, 2), padding=(1, 1))
  (9): Conv2d(512, 512, kernel_size=(3, 3), stride=(1, 1), padding=(1, 1))
  (10): Conv2d(512, 512, kernel_size=(3, 3), stride=(1, 1), padding=(1, 1))
)
--------------------------
[1,   200] loss: 2.150
[1,   400] loss: 1.883
[1,   600] loss: 1.817
[1,   800] loss: 1.747
[1,  1000] loss: 1.658
[1,  1200] loss: 1.595
[1,  1400] loss: 1.548
Accuracy of the network on the 10000 test images: 46 %
Traceback (most recent call last):
  File "train.py", line 64, in <module>
    torch.save(net.state_dict(), PATH)
…
