…
    Average Memory :                             3827.11 MB
    Total Requested Memory :                     5000.00 MB
    Delta Memory :                               0.00 MB
    Max Swap :                                   -
    Max Processes :                              3
    Max Threads :                                8
    Run time :                                   2884 sec.
    Turnaround time :                            2878 sec.

The output (if any) follows:

Files already downloaded and verified
Files already downloaded and verified
cuda:0
---network architecture---
Sequential(
  (0): Conv2d(3, 64, kernel_size=(3, 3), stride=(1, 1), padding=(1, 1))
  (1): Conv2d(64, 64, kernel_size=(3, 3), stride=(1, 1), padding=(1, 1))
  (2): Conv2d(64, 128, kernel_size=(3, 3), stride=(2, 2), padding=(1, 1))
  (3): Conv2d(128, 128, kernel_size=(3, 3), stride=(1, 1), padding=(1, 1))
  (4): Conv2d(128, 128, kernel_size=(3, 3), stride=(1, 1), padding=(1, 1))
  (5): Conv2d(128, 256, kernel_size=(3, 3), stride=(2, 2), padding=(1, 1))
  (6): Conv2d(256, 256, kernel_size=(3, 3), stride=(1, 1), padding=(1, 1))
  (7): Conv2d(256, 256, kernel_size=(3, 3), stride=(1, 1), padding=(1, 1))
  (8): Conv2d(256, 512, kernel_size=(3, 3), stride=(2, 2), padding=(1, 1))
  (9): Conv2d(512, 512, kernel_size=(3, 3), stride=(1, 1), padding=(1, 1))
  (10): Conv2d(512, 512, kernel_size=(3, 3), stride=(1, 1), padding=(1, 1))
)
--------------------------
[1,   200] loss: 2.261
[1,   400] loss: 1.990
[1,   600] loss: 1.796
[1,   800] loss: 1.728
[1,  1000] loss: 1.661
[1,  1200] loss: 1.603
[1,  1400] loss: 1.546
Accuracy of the network on the 10000 test images: 45 %
[2,   200] loss: 1.424
[2,   400] loss: 1.397
[2,   600] loss: 1.375
[2,   800] loss: 1.349
[2,  1000] loss: 1.308
…
